Desktop/Unitygames/exercise1/RollerBall/Assets/ML-Agents/model/RollerBall.onnx (onnx, 74450 bytes, 7 tensors)

network_body._body_endoder.seq_layers.0.weight f4 [128, 8]
000000 70 f3 98 3d 30 45 7d 3e 47 ec aa 3e 80 e1 a1 3c
       0.07468307 0.24733424 0.3338339 0.019760847
000010 66 45 bc 3c ab 1b 0b 3e 5d b6 18 bf 1f 04 b2 be
       0.02298231 0.13584773 -0.59653264 -0.3476877
000020 62 15 0a be 28 bd a2 be 36 7d af 3e ea cc 25 3f
       -0.1348472 -0.3178494 0.34275216 0.647658
000030 96 98 46 be 65 b6 8a 3e 40 5e 0b 3f 42 03 d0 bc
       -0.19394144 0.2709228 0.5444069 -0.025392178
000040 f7 6b b5 3d aa 9c 3a 3e 90 00 e6 3d ac 12 da 3d
       0.08858483 0.18223825 0.11230576 0.10648093
000050 17 70 95 3e 4e 9a 62 bf 8a 5d a3 be 55 62 e0 3e
       0.2918708 -0.885167 -0.31907302 0.4382502
000060 6e 5d 9f 3d 4b cf e3 be 65 0c 11 be 0b 81 36 bf
       0.07781492 -0.4449409 -0.14164884 -0.71290654
000070 3a 64 85 3e 6f 7a 64 be 6a 02 41 bf c2 08 d5 3e
       0.2605303 -0.2231233 -0.7539431 0.41608244
000080 91 2a e7 be 24 eb c9 3e 9c f7 dc be d4 da 8d 3f
       -0.45149663 0.3943721 -0.4315766 1.1082406
000090 30 62 ad 3d b9 1a af 3c 77 b5 1d 3d de 41 de 3d
       0.084659934 0.021375047 0.038503136 0.10852407
0000a0 7f d8 d7 3e 55 47 65 3f 38 89 bd 3e 17 ea ab be
       0.4215736 0.8956197 0.37018752 -0.33577034
0000b0 5f 60 d8 bd fb f4 03 bf b7 52 92 be 3d 6a a4 3e
       -0.10565256 -0.51545686 -0.2857873 0.32112303
0000c0 51 49 6f 3d c9 84 8d 3e b5 26 af be 9d e1 9c 3e
       0.05841953 0.2764037 -0.3420922 0.3064088
0000d0 ac 65 08 be a3 b8 d2 3e 69 10 2c 3d 68 6d 7c 3e
       -0.13320035 0.41156492 0.042007837 0.2465111
0000e0 51 91 c2 3e a7 0f b8 3d dd 79 65 be aa 6f d4 bd
       0.38001493 0.089873604 -0.22409768 -0.10372861
0000f0 b4 58 02 bf 4d fc 5d 3e 0d 39 f9 3e c4 72 df 3e
       -0.509166 0.21678276 0.4867634 0.43642247
000100 a2 44 fc 3e 00 fc 46 bd 17 03 3e be 50 2c 9c 3e
       0.49271113 -0.04858017 -0.18555866 0.30502558
000110 2f 1a 2a bf f9 2f ec be 85 d0 e1 3e 89 e3 31 3c
       -0.66446203 -0.4613035 0.441044 0.010857471
000120 1c 10 54 3e d6 1e 55 3e b2 ef 35 3e eb 65 86 be
       0.2070927 0.20812544 0.17767218 -0.26249632
000130 33 d8 2a be c5 ca e4 be d2 18 79 3e ce 3e 01 3f
       -0.16684036 -0.4468595 0.24325874 0.5048646
000140 61 f3 f8 3e aa b9 de 3e 01 c8 13 bf 40 88 63 be
       0.48623183 0.43501025 -0.57727057 -0.22219944
000150 21 ea 02 3f 7e 91 00 3f c3 ac c4 bd 2b 44 7a bd
       0.511385 0.50222003 -0.09603264 -0.061100166
000160 af f4 90 be ac e0 9b be d6 fc 79 3e 9f c6 04 3f
       -0.2831168 -0.3044485 0.24412856 0.5186557
000170 a2 93 97 3e 63 3b 6e bf 55 6b 55 be eb 08 57 be
       0.29604822 -0.93059367 -0.20841725 -0.20999496
000180 2f 3c 92 be b0 75 6c bf 56 52 f5 3d 65 9a 54 bf
       -0.2856154 -0.92367077 0.11978595 -0.8304809
000190 cc 7a 3e be ac b6 4b bd 8b 9f 09 be 79 ee a2 3e
       -0.18601531 -0.049734756 -0.13439767 0.31822565
0001a0 a3 03 8a be 9d 03 20 bf a5 02 12 3f 48 1c 08 3e
       -0.269559 -0.62505513 0.57035285 0.13292038
0001b0 6b d6 90 3d 17 ed 3d be 2e 34 50 3e e1 bc 36 be
       0.07072147 -0.18547474 0.20332405 -0.17845489
0001c0 67 e6 2e be c8 cc a6 be 26 5d 04 3e 27 e0 09 bd
       -0.17080079 -0.3257811 0.12926158 -0.033661034
0001d0 fd c4 6a be a0 67 43 3e 88 ca f1 bd e4 f4 f7 3e
       -0.22926708 0.19082499 -0.11806208 0.48429024
0001e0 96 39 40 bd 0a 8e 24 3f a9 b1 e3 3a a6 cf 8f bd
       -0.04692992 0.64279234 0.0017371672 -0.07022028
0001f0 0f 24 1f bf af 8e bf 3e b0 1c 18 3f bd 01 e1 bc
       -0.62164396 0.37413546 0.59418774 -0.02746665
000200 e5 7e 18 3f 32 25 84 be 92 de 3c be bd f7 a5 3e
       0.59568626 -0.25809628 -0.18444279 0.32415572
000210 9b d5 cb be a1 13 00 bf 40 b3 9c be 3a 6f f7 3e
       -0.39811406 -0.5002995 -0.30605507 0.48327047
000220 1e 16 e8 3c 5f 08 21 3e 82 47 9b 3e 01 ac fd be
       0.028330859 0.1572585 0.30327994 -0.4954529
000230 61 b1 5c 3f 74 05 a0 be ba 15 8c be 69 40 1f 3f
       0.8620816 -0.3125416 -0.27360326 0.6220766
000240 0c 65 36 3e a5 05 03 3f 8d fc 1f 3f 46 26 0f 3f
       0.17811984 0.5118049 0.62494737 0.55917776
000250 fc fc 20 be 63 28 02 3e 41 41 19 bc 05 79 b2 3e
       -0.15721506 0.12710719 -0.009353937 0.34857956
000260 9f e7 9c bd 73 5f 83 3e c8 51 cf 3d 5a be 5b 3e
       -0.07661366 0.2565876 0.101230204 0.21459332
000270 84 4f 49 3e 08 3e 4b bf 45 e6 90 3d 22 ca 25 bf
       0.19659239 -0.7939153 0.070751704 -0.64761555
000280 db e5 cd be 00 93 3f 3d 77 0d 32 bd 17 50 ce be
       -0.40214428 0.04677105 -0.043469872 -0.4029548
000290 3f af 3b be 7f 45 85 3e 25 fa 03 3f df b2 49 3d
       -0.1832857 0.26029584 0.51553565 0.04924285
0002a0 cb ed b5 3d d1 ca 79 be 57 84 9b 3e 44 8c b1 3e
       0.08883246 -0.24393775 0.30374405 0.34677327
0002b0 ba 08 5a be 31 ec b6 be ec 60 11 be e2 8f 9a be
       -0.21292391 -0.35727075 -0.14197129 -0.301879
0002c0 c5 fc 96 3d 12 b9 db be 25 82 33 3f a4 7f 96 bf
       0.07372431 -0.42914635 0.7012046 -1.1757703
0002d0 62 35 df be e1 79 3d be a5 7e 01 3f c1 c9 05 be
       -0.43595415 -0.18503524 0.5058387 -0.13065244
0002e0 fe 21 18 be 52 e1 b4 be 2f 07 10 3e db ab 84 be
       -0.14856717 -0.35328156 0.1406524 -0.25912365
0002f0 30 9a 02 3e 9e 4e 54 bd 2e 19 2d 3e a4 97 63 3d
       0.1275413 -0.051832788 0.16904137 0.055564538
000300 91 07 f9 3e 1d a8 3e be b8 83 47 3e cb 75 1b 3e
       0.48638585 -0.18618818 0.1948384 0.15181653
000310 62 be 6d 3e 29 83 fe 3e 36 73 33 3e 94 6a e6 be
       0.23217157 0.49709442 0.17524418 -0.45003188
000320 5a b6 a7 bc 88 95 41 3f b4 40 88 be 3c 57 04 3f
       -0.020472694 0.7561879 -0.26611865 0.5169561
000330 0e 19 33 3c 9f d4 c0 bd 2f a8 db 3e 32 20 b6 3e
       0.0109312665 -0.09415554 0.4290175 0.35571438
000340 3a e4 af be e7 72 f1 be ef 90 27 3e c7 f9 36 3e
       -0.3435381 -0.47157976 0.16363882 0.1786872
000350 2f dd 89 bd 6f 78 2f 3f 02 e4 1e 3e 05 b2 b5 3d
       -0.067316405 0.6854314 0.15516666 0.08871845
000360 4c 9b a8 3d 48 1b 23 be e3 be b7 be da c4 47 3f
       0.082327455 -0.15928376 -0.35887823 0.78034747
000370 a3 23 8a bd ac cd 22 3f bb d2 9a be 72 41 3a 3f
       -0.067450784 0.6359508 -0.302389 0.7275611
000380 2c 81 f2 3e 01 cc c5 bd f0 39 ff bd 42 cf 1b bf
       0.47364175 -0.09658051 -0.124622226 -0.60863125
000390 20 37 3f 3e 1a d7 04 bf e1 db 77 bc 40 d0 a8 be
       0.18673372 -0.5189072 -0.015128107 -0.32971382
0003a0 fc c6 5e bf c5 3a 70 bc 0b f0 77 bd d4 60 c2 be
       -0.87022376 -0.014662449 -0.060531657 -0.379645
0003b0 a2 42 4f be d7 d1 2b 3f 9c 0b 4f 3f 0f 0d d1 be
       -0.20240262 0.67117065 0.8087709 -0.40830275
0003c0 39 65 b6 3e 4f bf 98 bc 67 31 30 be 64 7a 38 bd
       0.35624102 -0.01864591 -0.17206345 -0.045038596
0003d0 e6 f6 71 3e 27 a0 35 3f 10 1f f7 be db 19 e2 3c
       0.2362934 0.709475 -0.48265886 0.02760022
0003e0 37 d5 1c 3f ef a0 e0 3e 8f 30 94 bd 44 af bb 3d
       0.6126284 0.43872783 -0.07235824 0.09164289
0003f0 58 c5 55 be d6 5c bd bc 01 4d 88 bf 37 a3 68 3c
       -0.20876062 -0.023115557 -1.06485 0.01419907

network_body._body_endoder.seq_layers.0.bias f4 [128]
000000 02 04 ed bc 59 14 1c bd d4 97 97 3d ea da b2 3c
       -0.028932575 -0.038105343 0.07402006 0.021832902
000010 7b d0 28 3e d4 79 a2 3d 49 3c c3 3c 67 bd cf 3c
       0.16485779 0.07933393 0.023832457 0.025358869
000020 4d c0 89 bd 94 f9 7a bd fb 08 fa 3d 27 a5 a5 3d
       -0.067261316 -0.061273172 0.12208744 0.08088141
000030 bf 9d f6 bd 74 fa 9e 3d c2 7d 8a bd 92 10 a7 bc
       -0.120418064 0.07762614 -0.06762268 -0.020393644
000040 12 a0 0b bc 81 5c 9c 3c 47 8d 0d bc bf e4 71 3c
       -0.00852205 0.019087078 -0.00863964 0.01476401
000050 68 3d 0f bc 67 b9 6a 3d da aa bf 3c 7d 7a 0d be
       -0.008742668 0.05730572 0.023396898 -0.13816257
000060 f8 27 ed 3b c5 6d 0d 3c e6 d2 0a bd 1e 58 33 bd
       0.0072374307 0.008632128 -0.033892535 -0.043785207
000070 f1 d5 86 3d b0 9d 04 bc d1 ef 8d 3d 18 c6 3a 3d
       0.06583775 -0.008094236 0.06930507 0.045599073
000080 92 57 24 3c 85 43 0f 3d 83 c8 e8 3d ff ea fd 3b
       0.010030644 0.0349765 0.113663696 0.007748961
000090 0f f0 c5 3c 6f ad d2 3d 65 7e d9 bc 3f 96 b0 3d
       0.02416232 0.10286986 -0.026549527 0.08622407
0000a0 1d 3b 81 3d 21 92 e3 bc 20 17 01 be 88 6e 20 bc
       0.06310103 -0.02777964 -0.12606478 -0.009791978
0000b0 8f 11 b7 3c d5 c1 da 3c 9f a6 b5 bd a8 9c 0e 3a
       0.02234724 0.026703754 -0.08869671 0.0005440214
0000c0 d3 84 60 3c d7 54 0c bd 3e 7d 16 3d 12 aa 86 3d
       0.013703543 -0.034260597 0.036740534 0.06575407
0000d0 54 d0 8e bd e5 e5 3c bc 20 3b 72 bd de d8 31 be
       -0.06973329 -0.0115294205 -0.059138417 -0.17367885
0000e0 8f f8 74 3d c9 f5 f7 3d 41 9e c9 3d 3b 16 14 3c
       0.059807356 0.12107427 0.09844638 0.009038503
0000f0 63 b8 3e bd ca fe 78 bc 89 2a b3 3b 49 82 b9 3c
       -0.046562564 -0.015197465 0.005467717 0.022645133
000100 66 b5 d7 3b 9b 1c 07 be f3 59 2d 3c 4a 64 0f 3d
       0.0065829037 -0.13194506 0.010580528 0.035007752
000110 5f 2b 98 3c ef d8 d4 3a 50 5a 19 bd 7e b2 f1 3a
       0.018575368 0.0016238968 -0.037439644 0.0018440036
000120 68 f5 a9 bb 86 d1 eb 3d 94 6b 75 bc 94 cb f0 3c
       -0.0051867254 0.11514573 -0.014979262 0.029393949
000130 16 e6 6b bd b3 32 1d 3e 8c 34 0a 3d 4e 1c 3a bc
       -0.057592474 0.15351371 0.03374152 -0.011359287
000140 f9 0a 9c bd 07 b8 2f bd e2 4b 1a be 97 7a d6 bc
       -0.0761928 -0.04290011 -0.1506801 -0.026181502
000150 88 6c 96 bd 83 90 08 bc aa 85 48 3d 60 4e bb bd
       -0.073449194 -0.0083352355 0.048955597 -0.09145808
000160 d6 a6 9b bc 19 60 80 3b 02 37 86 bd 55 f0 a6 3d
       -0.019000452 0.0039177057 -0.06553461 0.081513084
000170 79 82 71 3d 4d bf 89 bd 3e ec 1a bc 02 35 25 bd
       0.05896232 -0.06725941 -0.009455739 -0.040333755
000180 a1 41 05 3c fb 7d 28 3d b8 a6 1f 3d dc 23 14 3e
       0.008133323 0.04113577 0.038977355 0.14466804
000190 51 52 98 bc 73 b0 86 bb 87 0d 7c 3c 25 d6 47 3d
       -0.018593939 -0.00411039 0.015384085 0.04878821
0001a0 20 ff 9c bc b1 3a 3c bd 3b e0 ce bc ab 53 8f bc
       -0.019164622 -0.04595441 -0.025253406 -0.01749595
0001b0 b6 f6 23 3d 58 4e 1f be 6c df 27 3d 77 f9 d2 3d
       0.040030204 -0.1555723 0.040984556 0.10301488
0001c0 8b 83 86 bd 8f a0 90 bd db 93 ee bc d8 d4 70 3d
       -0.065680586 -0.07061874 -0.029123237 0.058796734
0001d0 35 c8 2c bd 65 4f 4b 3c 06 e8 86 bd 8d ad d7 3d
       -0.04218312 0.012409066 -0.06587224 0.10531149
0001e0 4c b4 ba 3c ab d9 f0 3d f3 a1 18 3d b3 04 33 3d
       0.02279105 0.11760267 0.03726382 0.043705653
0001f0 f8 38 83 bd 88 df 1a 3e e9 42 4d bd c0 46 c1 3c
       -0.0640735 0.15124333 -0.05011264 0.023593307

network_body._body_endoder.seq_layers.2.weight f4 [128, 128]
000000 36 af b8 3b 01 69 69 3e 43 7c 10 3d bb 2d 9c bd
       0.005636121 0.22793962 0.035274755 -0.0762591
000010 af 46 fd 3d 19 69 7c be 07 05 ba bd 38 99 ce 3d
       0.123669975 -0.24649467 -0.0908299 0.10087818
000020 40 0c 83 3d 3d 04 1a be e5 48 f4 ba 42 25 1f 3e
       0.06398821 -0.1504068 -0.0018637447 0.15541556
000030 dc 2e b0 bb 49 44 3c bd 9a c0 1a 3e 95 cf 51 bd
       -0.00537668 -0.04596356 0.15112534 -0.051223356
000040 1b e4 9f bd 5f ae 19 bc 50 15 5b 3d 6e 86 64 3e
       -0.078071795 -0.009379952 0.053487122 0.22316906
000050 14 aa 6b 3d 16 88 94 3e 58 e4 e6 bd 8e 53 94 3d
       0.057535246 0.29010075 -0.11274022 0.07242499
000060 73 08 28 3e b0 45 4d 3e 67 5d 41 3e 28 a1 f5 3d
       0.16409473 0.20046115 0.18883286 0.11993629
000070 5f 47 32 be 8b 77 3d 3e a9 08 31 3d f6 7f 93 bd
       -0.17410038 0.18502633 0.04322115 -0.07202141
000080 a1 f6 66 bd 83 26 4b 3c b0 c6 c3 3d 09 17 20 bd
       -0.056387547 0.012399319 0.09559381 -0.039084468
000090 d9 ba 9f 3d e3 74 ea 39 b1 af cc 3d 2c 2c d0 3d
       0.0779931 0.00044719045 0.09994448 0.10164675
0000a0 f7 56 cc 3d f7 48 b8 3c 5e 09 a5 bd 48 75 0f 3e
       0.09977525 0.02249573 -0.08058427 0.14009583
0000b0 0b ad d9 3c 7d f6 7e bd b2 e4 46 3d 0c 5e b2 3d
       0.026571771 -0.06224679 0.048557945 0.08709344
0000c0 4d 66 a1 be f2 a8 98 3d e9 65 50 3e fb 8c 9f be
       -0.31523362 0.07454099 0.20351376 -0.31162247
0000d0 aa 44 15 be 40 e4 44 3d bf c4 d2 bd 28 0c 2b bd
       -0.14576975 0.04806924 -0.102914326 -0.04175964
0000e0 5a 40 1e 3d b5 73 cb bd d0 d2 b1 bc 3c 06 5c bd
       0.03863559 -0.09934179 -0.021706969 -0.053716883
0000f0 c3 0a a8 3d 46 33 1d bd f3 61 56 3d bd fb 6d 3c
       0.08205178 -0.038378976 0.052339505 0.014525351
000100 a7 52 48 3e 67 c7 bd 3d cd ea 50 bc 70 3f 15 be
       0.1956278 0.092665486 -0.012751293 -0.1457498
000110 de 1c ae 3d a3 fd 77 3d e7 e5 b6 3b b9 af 07 3e
       0.085016 0.06054462 0.0055816057 0.13250627
000120 2e ae b3 bd 9c 7a c1 bd c6 31 67 3d a9 4b bd 3d
       -0.087734565 -0.09447214 0.056443952 0.09242947
000130 cd 4f 4c 3c 6d 7d 23 be 52 e2 c2 3d 4c ad 1b be
       0.012470198 -0.15965815 0.095158234 -0.15202826
000140 a7 10 01 be 63 34 f9 3d f3 43 18 bd 67 33 af bd
       -0.12604009 0.12168195 -0.037174176 -0.08554726
000150 6e a1 f5 bd b5 1e 87 3d 2a 07 1d 3d f3 4f 0d bd
       -0.11993681 0.06597654 0.03833691 -0.034500074
000160 c2 bb 9d 3d 8d 19 49 3c 81 2e f1 3d 54 e6 c7 3d
       0.077018276 0.012274158 0.11776448 0.097607285
000170 70 93 f0 3d 7a fe bd 3d fb da 9f 3d 1f 02 ce 3d
       0.117468715 0.09277053 0.07805439 0.10058998
000180 f4 9a af 3d 11 06 87 3e 03 61 f2 bd 00 dc 88 bd
       0.08574477 0.26371816 -0.1183491 -0.06682587
000190 e8 31 ad 3d a2 98 11 3e 8d 5e 2a 3e 3c b1 6f be
       0.084567845 0.14218381 0.16637631 -0.23407453
0001a0 90 b7 bc 3d 26 31 ac 3d 9c e9 4e 3e b5 6d b1 bd
       0.09214699 0.08407812 0.20206302 -0.08663503
0001b0 23 f4 27 be 6b 09 75 3d 04 fa 07 3d 4a 4d 33 be
       -0.16401725 0.059823435 0.033197418 -0.17509952
0001c0 97 cb 72 bd 99 4b 0c 3e fa ca 30 3e cb 3d 18 3e
       -0.05927619 0.13700713 0.1726493 0.14867322
0001d0 8d 4c 1c 3e 59 2d b6 3c 9d 3b 84 3d af a5 33 be
       0.15263577 0.02223842 0.06456683 -0.17543672
0001e0 0a 4f e4 3d d8 31 22 be d5 f4 ed 3d 36 a6 46 bc
       0.11147888 -0.15839326 0.11618964 -0.012124589
0001f0 8f 0b 02 3e a8 9f 86 be bd 8e cf bd 4d af ed 3d
       0.12699722 -0.26293683 -0.10134647 0.116057016
000200 7c e3 38 bd 5a 14 ae 3d e1 ce ae 3d fa 17 af 3d
       -0.04513882 0.084999755 0.08535553 0.08549495
000210 ba 34 1d 3d d3 46 a6 bd 78 a8 54 3d 80 1d 9f bc
       0.038380362 -0.081189774 0.051918477 -0.019423246
000220 82 27 2c be 04 d9 fc bd 3a 7f 76 be 54 ce 35 3c
       -0.16811946 -0.1234608 -0.2407197 0.011096556
000230 05 6b 4e bd 22 7d 51 3e 67 32 55 3d 0d 2c a9 3d
       -0.05039503 0.2045789 0.05205002 0.08260355
000240 d0 c2 3a be 34 0a 52 3d ff cf e6 3c 0a 3a 8a bd
       -0.18238378 0.05127926 0.028175352 -0.06749351
000250 68 a7 f1 3c a3 2c 2c 3e 2d cd 92 be 9b 3e 91 bc
       0.02949877 0.16813903 -0.28672162 -0.017730048
000260 de 9e c8 bc 62 0e 1d 3e dd 00 cc bd 5b db 03 3e
       -0.024489816 0.15337518 -0.09961102 0.12876646
000270 ba 5f 99 be c4 f3 b8 3d 6d 58 ae 3d 1b 15 85 bc
       -0.29955846 0.090308696 0.0851296 -0.016245415
000280 6e 32 c2 bc 75 a2 5e 3b 45 48 21 3e a3 7a 60 3e
       -0.023705687 0.0033971344 0.15750225 0.21921782
000290 cc c8 81 3d 00 9a 0f bc bb ea 44 3d 9d 00 66 3d
       0.06337127 -0.008764744 0.04807542 0.05615293
0002a0 75 37 2f 3d 21 8b 34 bd 8f e3 03 be eb cb 97 3d
       0.042777497 -0.044077996 -0.12879775 0.07411941
0002b0 33 d2 0b 3e 78 45 bf bd db 55 08 3c a3 6f 3d bd
       0.13654403 -0.09339422 0.008321251 -0.046249043
0002c0 95 34 32 3d 1a 29 ad 3d 94 24 69 3d 5b b2 25 be
       0.043507177 0.08455105 0.05691965 -0.16181318
0002d0 aa 36 8e bd 0e d5 00 3e 8b e6 13 3e 1b 85 06 be
       -0.0694402 0.12581274 0.14443414 -0.13136713
0002e0 d4 15 2c 3e 8c fe e1 3c 71 42 e5 bc 5c a0 0e 3d
       0.16805202 0.027587198 -0.027985783 0.0348209
0002f0 a0 76 78 3e d5 e5 2a 3d 40 bd 41 3d fd 97 c6 3b
       0.24264002 0.04172309 0.047299623 0.006060599
000300 94 8e 37 3e 0d d1 6f bc 2a 06 02 be 3f 90 e7 bd
       0.17925483 -0.014637244 -0.12697664 -0.1130681
000310 e7 70 01 bd 7e 0a 00 3e 01 16 c4 3c a3 70 88 3e
       -0.031601813 0.12504002 0.023936274 0.26648435
000320 98 c1 94 3d 59 46 1a be ed f5 30 3c a3 72 cc 3d
       0.072634876 -0.15065898 0.010800821 0.09982803
000330 43 9b 8d bd 0a 6e 02 be cc fd 10 3d 5f df b5 bd
       -0.069143794 -0.12737289 0.03539829 -0.08880495
000340 df 95 27 3e 16 59 44 3d ce df cf bd 2c a8 5f be
       0.16365765 0.04793652 -0.10150109 -0.21841496
000350 a9 a6 06 be 89 67 d3 bc b5 23 cc bd 85 ae 6c 3d
       -0.13149513 -0.025806205 -0.09967748 0.057783622
000360 ce 52 d0 bc 72 83 20 bc 4a 00 4c bd 37 52 f8 bd
       -0.02543011 -0.009796964 -0.049804963 -0.12125056
000370 56 5a 9b 3c c8 82 9a bc 3d 3a 53 3e ac ed 9f 3d
       0.018963974 -0.01886119 0.20627685 0.07809004
000380 d0 ad 19 3e ae bf 91 3d d1 2a a8 3c 41 70 08 be
       0.1500771 0.07116638 0.020528229 -0.13324071
000390 f4 db 12 3e 70 e5 5a 3d 2c e7 fa 3d bb 1e 2f 3d
       0.14341718 0.053441465 0.12251124 0.042753916
0003a0 27 37 75 bd 38 f9 c6 3d d2 f3 eb 3d db eb 03 be
       -0.05986705 0.097155035 0.115211144 -0.1288294
0003b0 db 9e 64 bc fe 91 64 be e5 54 d5 3c ab 33 23 be
       -0.01395389 -0.22321317 0.026041457 -0.15937679
0003c0 89 d7 dd 3d b6 73 10 3d 74 33 89 3d 02 4e 19 bd
       0.10832126 0.0352666 0.06699267 -0.03742791
0003d0 68 5a ab bc 4d 0f 27 3e 14 e7 b0 3b 37 c9 7d bd
       -0.020917132 0.1631443 0.0053986404 -0.06195947
0003e0 b5 f4 13 be 75 ec 4c be 7d b8 f7 3d e2 49 c4 3d
       -0.14448817 -0.20012076 0.12095735 0.095844045
0003f0 52 da e3 3d 38 2f a2 be 4d 4b 0e bd 10 c7 79 3d
       0.11125626 -0.3167665 -0.03473978 0.060980856

network_body._body_endoder.seq_layers.2.bias f4 [128]
000000 9d 24 aa 3d 46 d5 85 3d 39 98 48 bc 3b a2 31 3c
       0.08307765 0.06534819 -0.012243324 0.010841901
000010 c7 86 64 3d 55 3b da 39 97 5d 46 3d 31 c4 0e 3d
       0.055792596 0.00041624406 0.048429098 0.03485507
000020 9d a0 12 bd 26 90 98 bc 32 e0 43 bd 14 15 03 3e
       -0.035797704 -0.018623423 -0.04782123 0.1280101
000030 20 75 b5 bc 8d f8 b1 3d 8d 2d 25 bc d0 d5 37 bd
       -0.022150576 0.086899854 -0.010081661 -0.044881642
000040 93 d7 b7 3c 2f b3 f9 bb fa 04 ae bc 5a 44 e0 bb
       0.022441661 -0.0076202373 -0.021242607 -0.0068440856
000050 b8 a1 a7 3d 3f e2 2c bd 40 e2 ca 3d 70 db b0 3c
       0.08185142 -0.042207953 0.09906435 0.021589011
000060 33 51 84 3d 06 95 de bb cf 78 8e 3c 09 80 bb bd
       0.064608 -0.0067926673 0.01739159 -0.0915528
000070 76 ac 28 bc 76 0c a4 3d 9e 17 aa bc 2b f5 c4 3d
       -0.010295024 0.08010189 -0.020763215 0.096170746
000080 ad f0 37 bd eb 0c 7f bd c4 c6 16 bb f1 34 8b 3d
       -0.04490726 -0.06226818 -0.0023006657 0.06797207
000090 9c b8 f0 3d bf 13 63 3c 6a 05 0f 3d 52 d5 e5 3d
       0.117539614 0.013859688 0.034917273 0.11222328
0000a0 f7 94 b3 3d ec a6 ad 3d 84 25 c8 bc 77 05 b5 bb
       0.08768647 0.084791034 -0.024431951 -0.005524333
0000b0 31 a8 f6 bb 92 94 47 3c 4a cc 29 3d 99 e4 a3 bc
       -0.007527374 0.012181418 0.04145459 -0.020006465
0000c0 cd bd 09 3d 85 5e c6 3d 4e de 01 3d e1 40 09 bd
       0.033628274 0.09685997 0.031706147 -0.03350914
0000d0 c7 98 2e 3d 4f 93 77 3c cf 2c 40 3c 46 01 28 bd
       0.04262617 0.015110805 0.011729433 -0.04101684
0000e0 89 15 d5 3d af 66 ac bc fa 05 10 3a 06 2f 2a 3d
       0.10404498 -0.021045057 0.00054940546 0.04154875
0000f0 96 a9 88 3d 7b 6f 2a bc 7a 0d 87 3d 43 da cf bb
       0.06672971 -0.010402556 0.06594367 -0.0063431575
000100 bf 05 12 be 07 11 d8 3d 82 dc 05 bd b7 95 11 3d
       -0.14260004 0.10550123 -0.032680996 0.03554317
000110 ec 2f 37 3d 9e 84 d8 3c 24 89 ed 3d 43 e3 5f 3b
       0.044723436 0.026430424 0.11598423 0.0034162558
000120 28 c8 10 bd e7 a8 6d 3d 52 20 1f 3d c6 50 1b bc
       -0.035347134 0.058022406 0.038849182 -0.009479707
000130 1b 13 36 3d 7b d4 a9 3d 0d af e2 3c a1 20 0e bd
       0.044451814 0.082924806 0.027671361 -0.034699086
000140 67 9e a7 bb c2 fe 46 3d 09 07 af bc e6 c3 e5 3c
       -0.0051153186 0.0485828 -0.02136566 0.028047513
000150 2f 6a e9 bd d0 16 31 3c cb c8 96 bd 41 9f 89 3d
       -0.11397206 0.010808662 -0.07362517 0.067198284
000160 01 64 d1 bd 01 6a 8c 3d 07 66 75 bd f5 f4 75 3c
       -0.10224152 0.06856156 -0.059911754 0.015012016
000170 60 75 9b 3d 27 7d 3f bd 00 25 a0 bb a6 bb ad 3d
       0.07590747 -0.046750214 -0.0048872232 0.08483057
000180 37 88 8c 3d 2c 09 e6 3a 63 31 7d 3d 5e c5 78 3c
       0.068619184 0.0017550341 0.061814677 0.015183775
000190 05 cf c9 3c 61 7c 55 3d d5 83 f7 bb 56 40 a4 3c
       0.024634847 0.05212057 -0.0075535574 0.020050209
0001a0 3b b6 d2 bb 15 63 06 bd 32 0e 1e 3d 55 62 af 3d
       -0.006430415 -0.032809336 0.038587756 0.08563677
0001b0 55 f5 2d 3d c7 3b 97 3d 2b 41 64 3d 63 c4 6b 3d
       0.042470295 0.073844485 0.05572621 0.057560336
0001c0 3e 23 2e 3d 7e ff 0c 3a cc ba b1 3d b7 67 a0 3c
       0.04251408 0.00053786475 0.08678207 0.019580705
0001d0 03 02 f9 3d 72 e4 b3 bc ad 6c b3 3c 97 69 3d 3c
       0.12158587 -0.021959517 0.021902407 0.011560819
0001e0 d9 fa 0f 3d 06 d0 7e 3d 9f 5a 69 3d a4 a6 f6 bc
       0.035151336 0.062210105 0.05697119 -0.030108757
0001f0 9d 85 d5 3d ff 3a 04 3c bf d9 3a bc de c8 0c 3e
       0.10425875 0.008070706 -0.011404454 0.137485

action_model._continuous_distribution.log_sigma f4 [1, 2]
000000 80 52 1e bf fe 00 f3 be
       -0.61844635 -0.47461694

action_model._continuous_distribution.mu.weight f4 [2, 128]
000000 f1 f6 22 be 68 0c 16 be 13 6a 4f 3c c4 32 57 bd
       -0.15914513 -0.1465317 0.012659567 -0.05253865
000010 45 84 dd 3d 72 be 05 be e8 66 16 bd ab 76 15 be
       0.10816244 -0.1306093 -0.036719233 -0.1459605
000020 c4 f4 47 bd df a8 86 bc c9 cb 64 bd 75 31 c8 3d
       -0.04881741 -0.016437946 -0.055858407 0.09775058
000030 ad b6 5e bb 24 0c 08 bb 36 93 38 bd 04 9a 8f bd
       -0.0033983395 -0.002075919 -0.045062266 -0.07011798
000040 66 90 57 3c fe 2a da bb 62 e3 dd bc f8 6a 1f 3b
       0.013156986 -0.006657957 -0.027085964 0.0024325233
000050 3e eb 11 bb 93 bf 68 bc 4e a7 fd bd e0 31 2e bd
       -0.002226546 -0.014205831 -0.123854265 -0.042528033
000060 9d 7b b5 3c 52 8a b9 bd 05 b1 8a bd 4f 9c 26 bd
       0.02215367 -0.09059586 -0.06772045 -0.04067641
000070 04 8b 75 bd 8e 7b 58 3d 06 d0 ed 3b c0 dc f9 bc
       -0.05994703 0.052852206 0.0072574643 -0.03050077
000080 99 bc b1 bd d6 ee f9 bb 01 65 59 bd 2c 8f 77 3d
       -0.0867855 -0.0076273484 -0.05307484 0.060439274
000090 03 7c 04 3d 87 81 91 bc 05 73 f5 3c 21 e4 dd 3c
       0.03234483 -0.017761959 0.029962072 0.02708632
0000a0 40 20 17 be cd 21 f3 3d af c4 d9 bb 34 29 80 3c
       -0.14758396 0.11871681 -0.006645761 0.015644647
0000b0 3a a3 c2 bd 81 63 93 bd b3 39 a7 3c 10 db 60 bd
       -0.09503789 -0.07196713 0.020413255 -0.054896414
0000c0 4b d3 56 3d 0f 6b 55 bd 93 b6 9c b8 38 9f b0 bd
       0.0524476 -0.052104052 -7.472667e-05 -0.086241186
0000d0 49 fb a9 3c e1 e0 4a bc e9 58 0e bd a5 a9 38 bb
       0.020749705 -0.012382717 -0.03475276 -0.0028177288
0000e0 17 68 b2 3d 13 ac fd bd 92 95 17 bb d4 6a 0c be
       0.0871126 -0.12386336 -0.0023129922 -0.13712627
0000f0 79 4c 24 bd e5 78 d3 bc d8 e4 b7 bd b1 de bc bd
       -0.040111993 -0.025814483 -0.08979195 -0.092221625
000100 a3 29 c6 bc f6 68 9e 3d 31 a0 96 bd e9 f4 92 3d
       -0.024189776 0.077348635 -0.07354773 0.07175619
000110 aa a3 b5 3c a0 89 01 bb dd 7a da 3d fa 70 98 3b
       0.022172768 -0.0019765869 0.106679656 0.0046521397
000120 c7 6a 81 bd 87 8e 1e be f3 e3 d5 3d 87 e1 6f 3d
       -0.06319194 -0.15484057 0.104438685 0.05856469
000130 8d ef 90 3d 33 73 37 3d 49 08 01 3d 73 68 b7 bd
       0.07076941 0.044787597 0.031502042 -0.08955469
000140 6d e7 e1 3d 45 eb b2 bd 58 66 45 bd bd 19 66 bd
       0.11030469 -0.0873628 -0.048193306 -0.05617689
000150 1d 94 45 3c 58 6f d4 bd 49 f1 f7 3c 9f 21 22 be
       0.012059239 -0.103728 0.03026642 -0.15833138
000160 fb 58 74 bd e8 26 0b be 18 ef d5 bc f9 6f 52 bd
       -0.05965517 -0.1358906 -0.026114985 -0.051376317
000170 d4 2e e0 ba ad 40 d7 bc b9 86 c9 bd 19 b7 36 bd
       -0.00171038 -0.026275957 -0.098401494 -0.04460821
000180 7d d8 da 3d c7 f7 f7 bc 86 77 8c 3c b9 2b 06 3e
       0.10685823 -0.030269517 0.017146837 0.13102616
000190 da a5 fc 3c 55 9c 96 3d 2a ac 20 be 92 a4 2b 3d
       0.030840803 0.07354037 -0.15690675 0.041904993
0001a0 ea e1 23 bc 8e f2 21 bd f5 e0 40 bc fa 2b 90 3d
       -0.010002593 -0.03953796 -0.011772384 0.07039638
0001b0 09 34 a9 bb 01 9f 16 be 85 7a 3f bd a3 78 7f 3d
       -0.005163674 -0.14709093 -0.046747703 0.062370908
0001c0 f5 da 38 3c 84 11 d6 3c c1 e6 c0 3c 62 7a a9 bc
       0.011282672 0.026131399 0.023547532 -0.02068824
0001d0 61 1c e5 3d 68 3a 06 bd 61 d3 c5 bd 99 7a b4 bd
       0.111870535 -0.032770544 -0.09659458 -0.08812446
0001e0 fc 0e 98 3d 87 da 01 3c 6b 31 58 bd a3 0a 80 3d
       0.07424733 0.007925636 -0.052781504 0.06252029
0001f0 50 86 b9 3d a8 f2 d3 bd de cb 8f 3b 0b 27 c7 3d
       0.09058821 -0.103490174 0.0043883165 0.09724244
000200 e3 44 e7 3c 5f 7a 07 bc 51 d1 78 bd 53 f3 24 3d
       0.02823109 -0.008268922 -0.060746495 0.040271115
000210 ee b2 93 3b 09 3a 26 bc c9 68 04 be 2d 25 2b 3d
       0.004507414 -0.010145673 -0.12930597 0.0417835
000220 73 c3 6f bc b0 33 bc 3d 92 9e 16 3d 27 09 ce bb
       -0.014634001 0.09189546 0.03677232 -0.006287712
000230 a8 3b 09 3d c8 d5 d2 3d 85 07 3a 3d cc e8 2d 3d
       0.03350416 0.10294682 0.045417327 0.04245834
000240 c4 7d 6c 3d 6e 08 cb 3d a2 6d 34 3d 2b f8 bc 3d
       0.057737127 0.09913717 0.044049866 0.09227022
000250 57 5b 21 be 52 c0 90 bb 1e 1a f7 bb 1a 07 75 3d
       -0.157575 -0.0044174576 -0.007540955 0.059821226
000260 d3 88 71 3d 3e be 56 3d 52 ba ad bd 64 f2 b6 3b
       0.058968376 0.052427523 -0.084828034 0.0055830944
000270 f1 84 1e 3a 31 7f 8a 3d 94 e3 84 3c d0 4b 1f be
       0.00060470315 0.06762541 0.016221799 -0.15556264
000280 84 26 79 bc 51 5f b3 bc 11 2d 36 bd 47 4a ef 3c
       -0.015206937 -0.021896036 -0.044476572 0.029210223
000290 21 11 bb 3d 10 01 b4 bd ed 02 42 3d bf 49 13 be
       0.091341265 -0.08789265 0.04736607 -0.143836
0002a0 55 34 2c 3c 97 07 3d bd e1 52 a1 bd a2 08 71 bd
       0.010510524 -0.046149816 -0.07877136 -0.058846124
0002b0 b1 d3 48 bd 76 27 ae bd a2 56 c0 bd 9d d2 6f bd
       -0.04903001 -0.0850362 -0.09391524 -0.058550466
0002c0 e5 12 a8 3d 52 d5 2a be 59 93 fa bd 01 6d 4c bc
       0.08206729 -0.16682938 -0.122351356 -0.01247716
0002d0 12 2b b0 bd 16 3b 9a 3d ff b0 9e 3d 58 d7 49 3d
       -0.08601965 0.07530801 0.07748603 0.049277633
0002e0 95 0c 02 be 88 37 62 3d 7d 3a bc bd 86 23 36 3c
       -0.12700112 0.05522874 -0.09190843 0.011116868
0002f0 a4 c6 43 bc 6e 69 d0 bd 7e cc f8 3c 81 aa 8d bd
       -0.011949215 -0.10176359 0.030370947 -0.06917287
000300 a0 d0 5b 3c 73 fd 31 3d 01 d0 66 3c 26 2c 65 3d
       0.013416439 0.0434546 0.014087678 0.055950306
000310 92 b7 c6 bd 35 a8 d1 3d 3b 3d a2 3d 32 ab 7a bd
       -0.09702982 0.10237161 0.07921835 -0.06119842
000320 01 19 72 3d cd 25 57 3d f2 4d 5a bd 54 7c 5f bd
       0.059105877 0.052526284 -0.05329699 -0.054561928
000330 26 3f 76 bd 4b bb c7 3d d7 a0 cb 3d 0b e9 02 3d
       -0.060118817 0.0975252 0.09942787 0.03196053
000340 e1 fb c6 bc 8b cf 1d bc aa 3e 1c 3d 2f 15 c6 bd
       -0.024290027 -0.009632002 0.0381457 -0.09672009
000350 b5 bb 09 bd 9e 59 90 b9 a8 9a ab 3b cc e8 b9 bc
       -0.033626277 -0.0002753259 0.0052369423 -0.022694014
000360 14 f1 ee 3c 9f 34 c2 3c 84 e7 c6 3c f8 78 b6 3d
       0.02916769 0.023706732 0.024280317 0.08909792
000370 65 6e 18 be 3b b8 ce 3c 93 76 1c 3d e6 f4 f6 bd
       -0.14885862 0.025234332 0.03819902 -0.120584294
000380 75 93 84 bd 70 2b 8a 3d a3 fd df bd 30 6d c8 3c
       -0.06473438 0.06746566 -0.10937049 0.024466127
000390 19 97 8c bd eb bb 2f 3d b6 ff 95 3d 69 3f 01 bd
       -0.06864757 0.042903822 0.073241636 -0.031554613
0003a0 92 30 3b bd e9 83 0a 3d 5e ac 7e 3d 53 0b 5a 3d
       -0.045700617 0.033817206 0.0621761 0.053233456
0003b0 14 b5 bb bd 41 0a a8 3c e3 00 a9 bd c5 a8 ac bd
       -0.09165397 0.020512702 -0.08252122 -0.08430628
0003c0 a0 12 e3 bd c0 61 31 bc f1 5f f5 bd 29 76 51 bd
       -0.11087537 -0.010826528 -0.1198119 -0.051138077
0003d0 4c 95 c5 bd 82 d1 85 3d 12 d6 1d 3e cb 4f 39 bc
       -0.09647617 0.06534101 0.15413693 -0.011310528
0003e0 78 b9 18 3d 69 3e 0e be 76 0c 37 3d 93 89 15 bd
       0.03728625 -0.13890995 0.044689618 -0.036508154
0003f0 59 92 35 3d d9 3f cb 3d 12 fe 63 3d 7a 47 01 3e
       0.04432902 0.09924287 0.055662222 0.12624922

action_model._continuous_distribution.mu.bias f4 [2]
000000 9a bc 38 3d 7e e8 04 bb
       0.04510174 -0.0020280178
